saved_models/model_29.pth (torch_old, 63999 bytes, 19 tensors)

encoder.embedding.weight f4 [11, 7]
000000 4d 36 26 bf ad 58 86 3c 7a 08 c4 3e bc 66 00 3f
       -0.64926606 0.016399706 0.38287717 0.5015676
000010 d3 93 98 3f 94 cb 3e 3f 66 e7 76 bf ca b2 7a be
       1.1920112 0.74529386 -0.96446836 -0.24482265
000020 3e ec 3c 3f a2 71 99 3e e4 cf 05 bf 28 a3 50 be
       0.73797977 0.29969507 -0.5227034 -0.20374739
000030 bf b6 b8 3f 6a 13 9c bf ff 7e ef 3d 60 d9 00 3f
       1.443077 -1.2193425 0.116941445 0.5033169
000040 f1 fa 67 bc d4 d9 26 be d9 10 39 bd 62 ce 88 be
       -0.01415895 -0.16294032 -0.045182083 -0.26719958
000050 e2 c7 67 3d 7f 9d 9c be 92 c2 9b be d3 b4 3a 3f
       0.056587107 -0.3058891 -0.30421883 0.72932166
000060 9d 5c d7 3e fb df a4 be c7 b0 aa be 8c 38 48 3e
       0.42062846 -0.32202134 -0.33337995 0.19552821
000070 66 f3 a1 3e af 8b e0 be e6 5a 98 be 56 f2 53 3f
       0.3163101 -0.4385657 -0.2975685 0.8279165
000080 ad 14 90 3e f7 e4 56 be 29 9a 16 3f 34 b2 00 3f
       0.28140774 -0.2098578 0.5882898 0.50271916
000090 a9 7a db be 63 5f 41 bf b2 22 0d bf 04 f8 69 3e
       -0.4286702 -0.75536174 -0.55131066 0.22848517
0000a0 86 85 3c bf d0 03 f8 3d f6 21 0e bf db 19 76 3f
       -0.7364124 0.12110102 -0.5552057 0.961332
0000b0 e2 66 c7 bd f7 76 95 3e 49 4b a1 be 3a e7 07 be
       -0.0973642 0.29192325 -0.3150275 -0.132718
0000c0 37 d7 af 3e 28 e8 64 3e 10 c7 a8 be 8b 00 19 bf
       0.34343883 0.22354186 -0.32964373 -0.59766454
0000d0 c5 8c 4a 3d 11 7e d0 bd fb 79 33 3f fd 0e 5d 3f
       0.049450655 -0.10180295 0.70108 0.86350995
0000e0 0f 2a 22 bf bd dd 1e be ca b8 83 bf 9b cf ee 3d
       -0.63345426 -0.15514274 -1.0290768 0.11660691
0000f0 d4 57 4b be 78 3a 0a bf c1 97 84 be ce 64 07 bf
       -0.19857723 -0.53995466 -0.2589703 -0.5288819
000100 6f 9e 68 be c5 a2 ce 3d 94 ad 43 bf 5c 9a 8a be
       -0.22716688 0.100896396 -0.76436734 -0.27070892
000110 98 72 c1 3d 8e dc 95 3e 3f 8b 1d 3f d8 69 16 3f
       0.09445685 0.29269832 0.615406 0.58755255
000120 d1 e4 6d 3e a5 1e 0f be 86 71 22 3e 0f f6 fd be
       0.23231818 -0.13976534 0.15863618 -0.4960179
000130 fa 76 0c 3f
       0.54869044

encoder.rnn.weight_ih_l0 f4 [64, 7]
000000 fc ec eb bd c4 8c c8 3e ec e7 51 bd e1 b6 63 3e
       -0.115198106 0.39169896 -0.05124657 0.22237732
000010 ef bc 90 3f 72 92 e6 ba 9b ab 28 be be f1 b0 bd
       1.1307658 -0.0017591252 -0.16471712 -0.08639859
000020 8b b6 84 3e d9 c0 b4 be ba 79 b4 be dc d9 70 be
       0.2592052 -0.3530338 -0.3524912 -0.23520607
000030 ce 01 0c be 8a d3 d8 bb fc 87 80 be e8 22 dd be
       -0.13672563 -0.0066170143 -0.25103748 -0.43190694
000040 40 05 87 3e ea ec 12 3f ae bc b4 3e b6 02 05 bd
       0.26371193 0.5739275 0.353002 -0.03247329
000050 1b f5 b1 3b 54 8a 86 bf e5 8e b3 3e 15 a1 91 be
       0.00543083 -1.0510964 0.35069957 -0.28443208
000060 2b ea 3f bd 34 d4 b0 3d 87 a5 6f 3e f0 e1 97 bf
       -0.04685418 0.086342245 0.23402987 -1.1865826
000070 19 25 02 bf db 26 09 bf 02 cb 3b bb 25 75 61 3e
       -0.50837857 -0.53574914 -0.0028654938 0.22017343
000080 3f 6d f2 3e 66 65 63 be ca 9b 14 be 9e f8 8b 3e
       0.47348973 -0.22206649 -0.14512554 0.27338117
000090 f9 bd f2 be 90 91 07 3e 91 9c e3 bd 41 fc 9e 3e
       -0.47410563 0.13239121 -0.11113847 0.3105183
0000a0 2e e2 2c 3f 8d f4 c2 3d 3f 4e f5 be d6 f4 93 3e
       0.6753262 0.095193006 -0.4791126 0.28897732
0000b0 b5 c8 28 be a3 5a 69 be fe 44 eb 3e ff 96 93 3e
       -0.16482814 -0.22788481 0.45951074 0.28826138
0000c0 4a 82 4e bf e8 09 a0 be b7 9a ee 3d 97 12 90 3d
       -0.80667555 -0.31257558 0.11650603 0.07034796
0000d0 de a8 27 3e 0c c9 c0 bd b4 87 53 3e e9 f0 0c 3e
       0.16373011 -0.09413347 0.20657235 0.13763775
0000e0 96 7d af bd cd f0 3d bf 80 35 71 be e8 78 5b 3f
       -0.085688755 -0.7419556 -0.23555565 0.85731363
0000f0 2e 0d 69 3e 20 6e a5 3f 8b 7b ef 3e e2 ca 5d be
       0.22758934 1.2924232 0.46773943 -0.21659425
000100 f3 b3 95 be 48 13 96 bf 40 ed 08 be 9b 11 cd be
       -0.29238853 -1.1724634 -0.13371754 -0.40052494
000110 a9 d9 a1 3d f2 30 d2 3e da a4 ad be eb 52 e1 be
       0.079028435 0.41052967 -0.33914834 -0.44008574
000120 87 94 91 3e 46 c3 20 3e 94 aa 91 be f9 58 f9 be
       0.2843363 0.15699491 -0.28450453 -0.48700693
000130 bc 6e b8 be 94 cd d0 3e eb c6 34 bd a3 b9 37 be
       -0.36021984 0.40781844 -0.044135015 -0.17941909
000140 01 41 7b 3e 83 aa dd 3e a3 24 08 be d5 a0 8f 3e
       0.24536516 0.43294153 -0.13295226 0.28052393
000150 64 44 f4 3e cd ce d9 be 85 a4 4b be 58 b4 1f bf
       0.47708428 -0.4254059 -0.19886978 -0.6238456
000160 46 54 b4 3e aa d9 24 3e 73 10 0c 3f e3 77 94 be
       0.35220546 0.16098657 0.547126 -0.28997716
000170 f6 76 40 3f 03 a9 20 be f6 e1 c1 bc 33 cf 50 3e
       0.7518152 -0.15689473 -0.023667317 0.2039154
000180 bc ef 25 3f 28 d5 e0 be 81 c3 13 bf cf c5 17 be
       0.6481893 -0.43912625 -0.5772019 -0.14821552
000190 41 c2 c2 3e e5 29 45 be 6c 24 b1 3e 5f 60 30 3f
       0.3803883 -0.19254263 0.345981 0.6889705
0001a0 9f 20 c2 be 42 2a 3c be 96 11 b6 3e 24 69 c3 be
       -0.37915513 -0.18375495 0.35560292 -0.38166153
0001b0 76 8b c3 bf 3a 51 e0 3d d9 6b 4f bf 61 8c 5f 3e
       -1.5276935 0.10952993 -0.8102394 0.21830894
0001c0 6c 36 08 bd 80 90 3a 3e 0d 11 05 be 75 0a 99 3d
       -0.033255026 0.18219185 -0.12994786 0.07472698
0001d0 ee 44 ca be 87 b8 14 bf ce a5 c8 3e b1 c8 d1 ba
       -0.39505714 -0.58094066 0.39189 -0.0016005245
0001e0 b6 95 de 3b e0 cd 66 be 0f 99 3f 3e 9e 0e 97 3c
       0.0067927493 -0.22539473 0.18710731 0.018439587
0001f0 bc 53 20 3f bd d1 9f be a9 3c 31 3e 5e fc 2d 3c
       0.6262777 -0.31214705 0.17308296 0.010619251
000200 eb d1 e1 3d 24 9c 95 be 0b 3a 1a be e7 1d ee bd
       0.11026367 -0.29220688 -0.15061204 -0.11626797
000210 46 6f 3a 3e 9a 6e c8 3d e1 99 f9 3d 8f 03 8c 3d
       0.1820651 0.097867206 0.12187553 0.06836616
000220 c4 77 95 be 8c dc 94 be fe 93 1f 3e 68 2a 38 be
       -0.29192936 -0.29074514 0.15583798 -0.17984927
000230 ba ff 1f 3c 8e e9 21 3e 2e 8d 9f bd 97 e4 69 bd
       0.00976556 0.1581175 -0.077906 -0.057102766
000240 91 72 24 be 86 ea b9 be 5c a0 c6 bd 0d e5 05 be
       -0.16059329 -0.3631174 -0.09698555 -0.13075657
000250 6b b2 6f 3e 10 9e 6d 3d 0c e3 63 3e ad 61 02 be
       0.23407905 0.05801207 0.2225458 -0.12732573
000260 11 2a 26 3e 8d 4d 3e 3e 74 26 91 be 26 45 b2 3d
       0.16226985 0.18584271 -0.2834965 0.08704595
000270 98 be ff be 6b 62 17 bf c3 df f9 3c db 82 55 bc
       -0.499501 -0.5913455 0.030502206 -0.013031687
000280 1e 9d 16 be 1f 1c 99 bc 83 6b ad bb 54 5a a1 be
       -0.14708373 -0.018690167 -0.0052923574 -0.31514227
000290 de 0b 86 3e 2f 93 b4 3d b5 fe a2 3d 0e ea 03 bd
       0.2618093 0.088171355 0.07958738 -0.032205634
0002a0 44 74 7e be 0a 3d 22 3d b3 46 b0 3d ac 37 06 be
       -0.2484904 0.039608993 0.08607235 -0.13107175
0002b0 fb 34 0d 3d 4a be c8 3e a2 0b 07 bf 2c b6 b4 bd
       0.034474354 0.3920768 -0.52752125 -0.08823809
0002c0 42 20 86 3e 9a 59 14 3f cd 55 5d be 91 3b 09 bf
       0.26196486 0.5794922 -0.21614762 -0.53606516
0002d0 e8 e1 7d 3f 74 17 10 bf 53 13 ef 3d 51 52 ba 3e
       0.9917283 -0.56285787 0.11673608 0.36390927
0002e0 30 c4 32 be c6 1e 43 be ba 4b 13 3f e3 0e 39 3f
       -0.17457652 -0.19054708 0.57537425 0.7228834
0002f0 1e f3 80 bf a7 bf 7a be b4 3e 3e be 93 11 96 bd
       -1.0074193 -0.24487172 -0.18578607 -0.07327571
000300 9f ce 18 3e 1b 00 e8 be 99 17 b9 be b9 83 a3 3d
       0.1492257 -0.4531258 -0.36150816 0.079841085
000310 76 13 a8 3e 0a 2d 19 bd b9 12 b2 bd 1c 49 0e 3f
       0.32827348 -0.03739647 -0.08694977 0.55580306
000320 4e 2e 0f 3f 35 b4 1d bf 08 96 48 be d0 04 75 bd
       0.5593003 -0.616031 -0.19588482 -0.059819043
000330 3e 16 10 bd 81 db c9 be 32 01 9e bd e3 63 b3 3e
       -0.03517746 -0.3942528 -0.07715072 0.35037145
000340 9c 87 4f 3e ed 62 d5 bd b2 c3 aa 3d 07 10 2c bf
       0.20266575 -0.10419259 0.08338107 -0.67211956
000350 90 43 a4 3d bc bf c0 be 26 27 10 3e 6c 47 00 be
       0.08020699 -0.37646282 0.14077434 -0.12527245
000360 7a 89 19 be 41 2b 04 3f 9d 6e fb bd 75 54 c3 3e
       -0.1499385 0.516285 -0.12276957 0.38150373
000370 da 65 a9 3c c8 b1 95 3e 67 c9 47 3f d8 cb 54 bf
       0.02067845 0.292372 0.7804169 -0.8312354
000380 c1 7f 98 be 8d 8f a7 be cc 5b ea 3d 86 7f 99 bd
       -0.29784968 -0.32726708 0.1144329 -0.07495026
000390 88 18 fe 3e b5 3c 17 3f b8 8f 0b bf 73 e4 18 3f
       0.4962809 0.59077007 -0.5451617 0.59723586
0003a0 53 23 f8 3d b1 b8 c0 bd 6f 2c ab bf bf b6 f4 3d
       0.121161126 -0.09410227 -1.3372935 0.119489186
0003b0 d4 c6 f7 3e e9 29 8d 3e 48 5f cd bc be 9b d5 3e
       0.4839388 0.27571037 -0.025069848 0.41720384
0003c0 96 ae 11 bd df 1d 4f bd 10 0e 99 3e b9 0f 12 3f
       -0.03556689 -0.050565597 0.2989354 0.5705524
0003d0 25 19 11 bf d1 9a a6 be 9d ef d7 3e 31 1e 26 be
       -0.5667899 -0.3253999 0.42174998 -0.16222455
0003e0 40 c5 90 be dc 3b 9b bf 9d 34 92 bf b2 3e 07 3e
       -0.2827549 -1.2127643 -1.1422306 0.1320751
0003f0 df a3 a6 bd 02 56 aa bd 0d 6b 98 be 6b 83 20 3f
       -0.08136725 -0.08317186 -0.29769173 0.6270053

encoder.rnn.weight_hh_l0 f4 [64, 16]
000000 22 6e 8b 3d a0 a6 b1 bd 20 1e c4 bd c8 10 2d 3d
       0.068081155 -0.08674359 -0.095760584 0.042252332
000010 ae 6f 18 ba 65 3f 4e 3e d2 f4 9f 3d 2a fb 35 be
       -0.00058149814 0.2014137 0.07810368 -0.17771593
000020 a7 09 9e be 27 0d 96 bd 97 3d 1c 3e a1 be 8b 3e
       -0.3086674 -0.07326727 0.1525787 0.27293876
000030 89 58 b7 3d 12 2c d8 bd 05 95 5b 3c 29 0f ec bd
       0.089524336 -0.10555281 0.013402228 -0.11526329
000040 5f 53 ea 3c cc 59 fe 3e 06 4d 86 be 5f 57 77 3b
       0.028604208 0.49677885 -0.2623064 0.0037741286
000050 69 1b bc be 86 35 3c 3e 1c dd aa 3d 7c 91 1f 3f
       -0.36739662 0.18379793 0.083429545 0.62331367
000060 84 88 1c bf 90 90 e5 3e ab b2 d8 3d 32 3a 11 bf
       -0.61145806 0.44836855 0.10580953 -0.56729424
000070 47 6a e2 bd 11 f7 1e bf 37 1d aa 3d c9 39 fb be
       -0.11055427 -0.62095743 0.083063535 -0.49067524
000080 06 45 64 be ea 9f ab 3e 17 8f 30 be f7 30 63 be
       -0.22291955 0.33520442 -0.17242084 -0.22186647
000090 02 f5 aa 3d db b6 4e 3d ee 65 c5 3e 8e d8 62 3d
       0.08347513 0.050467353 0.3855433 0.055382304
0000a0 e5 55 af bd 48 e3 ca 3d ad 29 83 3d 9e 16 87 3d
       -0.08561305 0.09906632 0.064044334 0.06596111
0000b0 85 16 90 3e 01 cb 97 be 78 22 6d 3e 7d 23 49 bd
       0.2814218 -0.29647067 0.2315768 -0.04910611
0000c0 67 82 97 3c d6 c4 a7 3e 2a a1 5f be f6 be 8c be
       0.018494798 0.3276736 -0.21838823 -0.27489442
0000d0 b3 fe d6 3c 90 9d 58 3e 3a b9 84 be cb 3a 5d 3e
       0.026244497 0.21153855 -0.25922567 0.21604459
0000e0 76 f9 8d 3e ed ce 81 be 62 e5 98 be db a8 97 3c
       0.27729386 -0.25353184 -0.29862505 0.018513134
0000f0 cb e0 1a bd c1 93 2c be e3 7b 9b 3e 35 aa 0c 3e
       -0.037812036 -0.16853239 0.30367956 0.13736804
000100 7f 63 54 be f7 38 df bd 7c f8 1f 3e d3 4d 5c be
       -0.2074108 -0.10899537 0.15622133 -0.21514063
000110 1e 67 4b be 5f ff f0 3d a8 da 16 3e 08 57 83 3e
       -0.19863555 0.11767458 0.14731848 0.25652337
000120 ab 91 bb be 6c 23 c0 be 9e ad 86 be a9 fb 8b 3e
       -0.36634573 -0.37527025 -0.26304334 0.2734044
000130 d1 c7 05 bd b4 7a bb bd cc 1a 51 be c1 7b a5 3d
       -0.032661263 -0.09154263 -0.20420378 0.08080245
000140 9d 2c fb 3c bd 54 28 be 3e 26 36 3e 93 ae 23 be
       0.030660922 -0.16438575 0.17788026 -0.15984564
000150 86 fe 58 be 2f 68 21 3e 67 95 0d be 0a 10 56 3e
       -0.21190843 0.15762399 -0.13826524 0.20904556
000160 e5 5c 02 bf 2c cf 9c bd 17 88 42 3e 60 90 bc 3e
       -0.50922996 -0.076567024 0.18997227 0.368289
000170 7d a8 60 3e 28 ef 79 bd d9 43 43 3d 57 2f 07 3f
       0.21939273 -0.061019093 0.047672126 0.5280661
000180 8b 7d 17 3e 4d 83 bd bc aa 99 86 be 57 f2 d3 3c
       0.14793985 -0.023133898 -0.2628911 0.025872393
000190 a8 2f 95 bd d9 47 ff 3d 19 9c 1b be 23 2a 56 bb
       -0.0728448 0.12464876 -0.15196265 -0.0032678924
0001a0 24 c1 48 be 25 3f d3 3a 12 2d 33 be 2e 4c f1 3e
       -0.19604927 0.0016116841 -0.17497662 0.47128433
0001b0 6e ba 1c be 1e 8d 80 3d 97 78 ec 3e 18 64 5a bb
       -0.15305492 0.06276916 0.46185753 -0.003332382
0001c0 6e 10 ef 3d 94 76 48 3d 15 c2 08 be 30 69 73 be
       0.116730556 0.04894121 -0.13355286 -0.23770595
0001d0 f6 1c 06 bd ea 81 84 3e d0 62 ab bd dd bb 74 3e
       -0.032742463 0.25880367 -0.08368456 0.23899789
0001e0 60 c3 ba be b9 dd 00 3d 25 e4 db 3a 76 33 c3 3e
       -0.36477184 0.03146145 0.0016776366 0.381252
0001f0 cd 3f 38 3e bd 44 56 be a1 30 b2 3d 7e 25 a4 be
       0.17993088 -0.20924659 0.087006815 -0.32059854
000200 83 40 b0 bd c8 8f 59 3d c0 0c 31 be 0e 70 ba 3d
       -0.08606055 0.053115636 -0.1729002 0.09103404
000210 4b 56 86 3d 57 06 18 3e fb 28 12 3e c1 85 c9 3e
       0.06559428 0.14846168 0.14273445 0.3935986
000220 b2 1b 18 be 3b 1a a4 3e 58 36 94 3e d8 a8 9f be
       -0.14854315 0.32051262 0.2894771 -0.31183505
000230 5f d6 1d bf 4c 68 12 bf 05 8c 9c bd b1 85 64 3e
       -0.6165523 -0.57190394 -0.07643894 0.22316624
000240 7d 2d 82 bd c7 63 8e 3e 98 7d 2e be 5e de 6f bc
       -0.063563325 0.278105 -0.17040098 -0.014640419
000250 a0 10 58 3e 1c 49 0f 3e 73 ce 96 bd d0 4f b2 3e
       0.21100092 0.13992733 -0.07363596 0.34826517
000260 7b ca ea be b8 c2 f8 3d 91 89 09 3d bd 76 05 bc
       -0.45857605 0.12146515 0.03357846 -0.008145985
000270 e3 72 8b be e5 be 93 be d1 ca e6 3d bf 36 54 3d
       -0.2723609 -0.28856578 0.11269153 0.051810022
000280 39 b7 a7 3e db cc bb 3d 73 59 61 bd 7c d2 90 3b
       0.32756975 0.091699325 -0.055016946 0.004419623
000290 29 17 f3 3c a1 b6 55 be e6 13 16 be f2 a0 dd 3d
       0.02967413 -0.20870449 -0.14656028 0.108217135
0002a0 5f 3e 01 bf c7 f6 c6 3d 7f 05 94 bd a3 9b 9b 3d
       -0.50485796 0.09715038 -0.07227611 0.07598045
0002b0 b1 9d 43 3d 4c 3f f9 3d e1 48 75 be f9 d0 37 be
       0.047757808 0.12170276 -0.23953582 -0.1795081
0002c0 83 e0 1b be ec 63 87 be c3 85 d0 3d 81 fd 26 bf
       -0.15222363 -0.26443422 0.10181763 -0.65230566
0002d0 a2 6b 94 be 52 e8 fa bd 7d f6 c7 bd ce 26 4b 3d
       -0.28988367 -0.12251343 -0.09763811 0.049597554
0002e0 e1 ee b5 be 28 d1 38 be 3b 3e b0 bd 09 6d 77 3d
       -0.35533813 -0.18048537 -0.086056195 0.06040672
0002f0 5f 11 75 be d9 a5 40 3e 8b ce 23 be d5 f7 94 3d
       -0.23932408 0.18813266 -0.15996759 0.07273833
000300 f6 2f a2 3c f6 e8 1f bd af be c4 bd e0 81 af be
       0.01979826 -0.03904053 -0.096066825 -0.34278774
000310 54 e2 10 3e 34 4b 18 3e 1f 73 06 be 00 57 71 3e
       0.14148837 0.14872438 -0.13129853 0.23568344
000320 41 c2 e6 bd 0c 27 e9 3d 24 bd 4c bf 21 19 02 bc
       -0.1126752 0.11384401 -0.79976106 -0.0079405615
000330 6b 87 ed be 86 1e 7f 3d a9 a7 b2 bd 54 98 7c be
       -0.46392378 0.06228497 -0.08723385 -0.24667484
000340 93 63 98 bd bd 4f b9 3e d7 3f 3e bd df 70 3d be
       -0.07440867 0.36193648 -0.0464476 -0.18500088
000350 9b de 0c 3e 8b fd 32 3e 0b 0e 78 be 9c a4 d2 3c
       0.13756792 0.17479531 -0.24224107 0.025713257
000360 54 34 b6 3d 43 cd 9b bd d8 05 80 bd 27 f5 04 3e
       0.088966995 -0.0760751 -0.062511146 0.12984143
000370 32 fe 23 38 c8 3c fe 3c 0a 4e ca 3d 9d 76 bb 3e
       3.9098966e-05 0.031034842 0.09878166 0.36613932
000380 a0 62 c9 bd 87 42 94 be c6 54 d5 3d 08 6f 41 be
       -0.09833264 -0.28957006 0.1041656 -0.18890011
000390 0d 67 ee bb c8 6f 1d 3d 99 55 a5 3e 96 ec 04 3d
       -0.007275468 0.03843668 0.32291868 0.03245219
0003a0 88 9d 49 be 29 e2 c6 bd 16 cd 1b bf 29 ef b1 3e
       -0.19689 -0.097111054 -0.6085981 0.34752777
0003b0 86 87 22 be 48 71 99 bd 0e 15 07 be 07 13 d1 3d
       -0.1587201 -0.0749231 -0.13191625 0.10208707
0003c0 c9 69 f3 3c bf 77 7a be 95 9d 42 bd f3 71 93 be
       0.029713528 -0.24459742 -0.047513563 -0.28797874
0003d0 43 5a 04 be 20 5f 94 3e 07 40 f8 bd 39 84 d1 3d
       -0.12925057 0.28978825 -0.12121587 0.102302976
0003e0 bd 4d 29 bf 7d 14 cf 3e c9 36 83 bc 20 26 12 be
       -0.66134244 0.4044532 -0.016017335 -0.14272356
0003f0 91 7a 40 be 53 bb df be 31 8a 77 3d bb f1 de 3e
       -0.18796755 -0.43697605 0.060434524 0.435438

encoder.rnn.bias_ih_l0 f4 [64]
000000 44 8b de 3d 60 b0 4a 3f 6f 06 04 3e 01 8d f6 3e
       0.108664066 0.79175377 0.12893079 0.48154452
000010 31 80 aa 3d 6e a4 e0 3a dd 24 b8 3d 18 d3 f0 bc
       0.08325232 0.0017138848 0.08991406 -0.029397532
000020 43 16 19 3f f9 c7 d2 3e 19 f2 f7 3e 3f 38 e4 3d
       0.59799594 0.41168192 0.48426893 0.111435406
000030 6e f1 8b 3e 99 dd e4 3d fb d4 7b 3e 48 db 35 3f
       0.27332634 0.11175079 0.24592964 0.7103772
000040 c6 54 b3 3e 4e 1e 20 bf d6 bb 8d 3e 7c 24 36 be
       0.35025615 -0.6254624 0.2768237 -0.17787355
000050 81 b9 d8 3d c1 54 e6 3d c6 03 b0 3d 40 88 f2 3c
       0.10582257 0.11246634 0.0859447 0.029605985
000060 3d 23 c7 be 90 c2 c1 be 2a 28 08 bf 6d 38 55 3e
       -0.38894072 -0.37843752 -0.53186285 0.20822306
000070 78 5f fa bd 55 12 b9 3d cb 55 ce bd 6c 3f 0f bf
       -0.122252405 0.090367 -0.100749575 -0.5595615
000080 fc 98 a3 bd bb c5 44 3d ae 98 04 be 3c 7d fe 3d
       -0.07988164 0.048040133 -0.12948868 0.1242623
000090 1e 9a 3b bc 38 75 e7 bc 22 15 14 3d fa c0 1e 3d
       -0.011450319 -0.028254136 0.036152966 0.038758256
0000a0 ad b9 a8 bd 5b ee ac 3d 67 ea 9d 3c 74 bd 3e ba
       -0.0823854 0.084439 0.01927681 -0.00072761555
0000b0 b0 2b aa bd c6 9b c7 bd ae e4 aa 3c e7 dd 34 3c
       -0.08309114 -0.09746508 0.020860996 0.011039234
0000c0 40 dc 56 3e 46 35 3e 3f 3d 11 44 3e ff dc 04 3f
       0.20982456 0.7430004 0.19147201 0.51899713
0000d0 44 1e 02 3e 94 c7 30 3e 9f 5f 21 3e 80 2d d8 3c
       0.12706858 0.17263633 0.15759133 0.026388884
0000e0 f0 de 08 3f e3 6e c8 3e bf d7 36 3f 12 0c 11 3f
       0.53465176 0.391471 0.7142295 0.5665904
0000f0 47 48 57 3e 71 8b 07 3e 3e a7 97 3e 48 ab 35 3f
       0.21023665 0.13236786 0.29619783 0.7096448

encoder.rnn.bias_hh_l0 f4 [64]
000000 44 8b de 3d 60 b0 4a 3f 6f 06 04 3e 01 8d f6 3e
       0.108664066 0.79175377 0.12893079 0.48154452
000010 31 80 aa 3d 6e a4 e0 3a dd 24 b8 3d 18 d3 f0 bc
       0.08325232 0.0017138848 0.08991406 -0.029397532
000020 43 16 19 3f f9 c7 d2 3e 19 f2 f7 3e 3f 38 e4 3d
       0.59799594 0.41168192 0.48426893 0.111435406
000030 6e f1 8b 3e 99 dd e4 3d fb d4 7b 3e 48 db 35 3f
       0.27332634 0.11175079 0.24592964 0.7103772
000040 c6 54 b3 3e 4e 1e 20 bf d6 bb 8d 3e 7c 24 36 be
       0.35025615 -0.6254624 0.2768237 -0.17787355
000050 81 b9 d8 3d c1 54 e6 3d c6 03 b0 3d 40 88 f2 3c
       0.10582257 0.11246634 0.0859447 0.029605985
000060 3d 23 c7 be 90 c2 c1 be 2a 28 08 bf 6d 38 55 3e
       -0.38894072 -0.37843752 -0.53186285 0.20822306
000070 78 5f fa bd 55 12 b9 3d cb 55 ce bd 6c 3f 0f bf
       -0.122252405 0.090367 -0.100749575 -0.5595615
000080 fc 98 a3 bd bb c5 44 3d ae 98 04 be 3c 7d fe 3d
       -0.07988164 0.048040133 -0.12948868 0.1242623
000090 1e 9a 3b bc 38 75 e7 bc 22 15 14 3d fa c0 1e 3d
       -0.011450319 -0.028254136 0.036152966 0.038758256
0000a0 ad b9 a8 bd 5b ee ac 3d 67 ea 9d 3c 74 bd 3e ba
       -0.0823854 0.084439 0.01927681 -0.00072761555
0000b0 b0 2b aa bd c6 9b c7 bd ae e4 aa 3c e7 dd 34 3c
       -0.08309114 -0.09746508 0.020860996 0.011039234
0000c0 40 dc 56 3e 46 35 3e 3f 3d 11 44 3e ff dc 04 3f
       0.20982456 0.7430004 0.19147201 0.51899713
0000d0 44 1e 02 3e 94 c7 30 3e 9f 5f 21 3e 80 2d d8 3c
       0.12706858 0.17263633 0.15759133 0.026388884
0000e0 f0 de 08 3f e3 6e c8 3e bf d7 36 3f 12 0c 11 3f
       0.53465176 0.391471 0.7142295 0.5665904
0000f0 47 48 57 3e 71 8b 07 3e 3e a7 97 3e 48 ab 35 3f
       0.21023665 0.13236786 0.29619783 0.7096448

encoder.rnn.weight_ih_l0_reverse f4 [64, 7]
000000 30 c8 e9 bb a0 c6 c7 3e 8a 89 d8 3e 0e 5d be be
       -0.00713446 0.39018726 0.42292434 -0.3718037
000010 d1 ad b7 bb ba f1 7c 3e 3c 7c 70 be c8 39 b3 bd
       -0.0056054373 0.24701586 -0.23484892 -0.08751255
000020 5c 30 b1 3d b2 7f e0 3d 3e 7e 1a bf 9e f9 dc 3b
       0.08651802 0.10961856 -0.6034888 0.006743624
000030 32 da 33 3f 8b e7 ec be 9b 6e 12 bd 36 6f 8f 3e
       0.70254815 -0.46270403 -0.035750013 0.28014535
000040 2a 26 fa 3d f1 e9 28 be be 3c 1f 3e 6f 7a b7 3c
       0.122143105 -0.16495492 0.15550515 0.022397248
000050 da dd fa 3d 2a e0 07 be 05 bb b4 be 62 52 ba 3e
       0.12249346 -0.13269106 -0.35298935 0.36390978
000060 03 cc c6 3d 7c 01 f9 3d de 6f ff be 49 05 c4 3e
       0.09706881 0.12158486 -0.49890035 0.38285282
000070 87 e7 f0 3e 00 56 ba bd 0d cd a7 3e c6 ed 49 be
       0.4705164 -0.090984344 0.3277363 -0.1971961
000080 2d f5 60 3e 6e b5 82 3e fc 22 99 3e be 40 d8 bd
       0.21968527 0.25529045 0.29909503 -0.105592236
000090 d5 6e 63 3e 0d a6 41 3e 92 84 6d be 13 53 c8 bc
       0.22210248 0.18911 -0.23195103 -0.024453675
0000a0 18 ae ad 3e 80 db 35 bf 36 85 11 3d 8a 31 91 be
       0.33921885 -0.71038055 0.03552743 -0.28358108
0000b0 e6 ee 25 bd 21 ad 2e 3e 05 41 ec 3c 01 e9 3a be
       -0.040511034 0.17058231 0.028839597 -0.18252946
0000c0 b2 90 98 3e 81 2d ac be 63 4d 22 be 06 fb 81 3d
       0.29797894 -0.33628467 -0.15849833 0.06346707
0000d0 40 a0 41 bc c5 d3 f9 3e 6e 19 3a 3e 8d d0 83 3e
       -0.011817992 0.4879438 0.18173763 0.2574505
0000e0 5b 3b eb 3d cb e8 d4 bd 8c 5d bd bb 6f 1e 61 bc
       0.114859305 -0.10395964 -0.005778974 -0.013740166
0000f0 ea 98 a1 3d 49 0f 24 3e 0f 0c 06 be 2a 89 5d bb
       0.07890494 0.16021456 -0.13090537 -0.003380368
000100 f5 38 16 be 8f 98 6b 3e e6 ad 11 be 8c af 8c 3d
       -0.14670165 0.23007415 -0.14226493 0.068694204
000110 14 0b db be 63 c0 e8 bd 09 8b 93 be b4 c4 eb be
       -0.4278189 -0.1136482 -0.28817013 -0.4604851
000120 d1 98 79 be e8 b0 a8 3e ca 33 52 3e 48 05 2f bd
       -0.24374701 0.3294747 0.20527568 -0.042729646
000130 7d 81 38 bd 01 02 59 3e 84 80 fa bd 48 be 97 bd
       -0.045045365 0.2119217 -0.12231544 -0.0740934
000140 90 00 1d 3e e2 7e 4f 3e 4b 19 a3 3e 10 51 1a bf
       0.15332246 0.20263246 0.31855235 -0.6027994
000150 e8 1f 58 be 62 24 34 3d 8c 46 06 be ee 36 93 3e
       -0.21105921 0.04398001 -0.13112849 0.28752846
000160 d1 6f 19 3e 14 d2 f5 3e 84 d8 0a bd 50 71 be 3e
       0.14984061 0.4801184 -0.03389789 0.37195826
000170 6c 98 00 3f 93 c8 d4 bd 74 cc 2c 3e 39 f7 83 3e
       0.5023258 -0.10389819 0.16874868 0.25774553
000180 f6 11 74 3c 8e 3c 09 bf a4 80 23 3e e4 26 02 be
       0.01489686 -0.53608024 0.15967041 -0.12710148
000190 bb 46 48 3d ae 70 9e 3f 04 20 18 3e 22 04 6d bd
       0.04889558 1.2378137 0.14855963 -0.05786527
0001a0 04 d2 47 3e ab 30 a7 3d 70 99 33 be f8 22 2e 3e
       0.19513708 0.081635796 -0.17539 0.17005527
0001b0 88 14 62 be 83 e3 4d be f6 a5 3e be 3e f4 03 3f
       -0.22078145 -0.2010632 -0.18617997 0.5154456
0001c0 7a b8 06 3f 51 3c 27 bd c1 c7 ba bd cb 2c 11 bf
       0.5262524 -0.040829007 -0.09120131 -0.56708974
0001d0 2b 95 1c 3e 40 07 7a be 8c 5c 1d 3f f1 39 95 bd
       0.15291278 -0.24416828 0.6146934 -0.07286442
0001e0 3d 25 fc be e8 7c 81 be c3 5f 02 3d cf bc 00 3f
       -0.4924716 -0.25290608 0.031829607 0.502881
0001f0 4e d9 7d bf 2f ef 71 3f f7 8e a9 bd 77 0f da be
       -0.99159706 0.9450559 -0.082792215 -0.42589924
000200 01 f9 b5 be a0 83 a7 bc ab fd e4 bd 0f 04 0b bf
       -0.35541537 -0.020448506 -0.11181196 -0.5430307
000210 54 c7 74 3f 9b 77 74 be ed 3f c9 be 8d ac bb 3e
       0.9561665 -0.23873751 -0.39306584 0.36655083
000220 a5 46 4b 3f bf c6 81 be e3 0a 54 bf d0 cc d6 3f
       0.7940467 -0.25346944 -0.8282911 1.6781254
000230 cb dc bd 3e 31 46 b4 be 98 a5 ce 3e fc 75 dd 3e
       0.37082514 -0.35209802 0.40360713 0.43254077
000240 95 fc 60 be 36 02 36 be 12 43 1b 3f fa d1 5c be
       -0.21971352 -0.17774281 0.60649216 -0.21564475
000250 18 56 60 bf 3c 4e 6c 3e 7c 59 b3 be 41 7f 43 bf
       -0.8763137 0.23076719 -0.3502921 -0.7636605
000260 87 bc 74 bd 25 5b 07 bd 34 5b 22 be 2f 19 26 bf
       -0.059750106 -0.033045907 -0.15855104 -0.6488218
000270 5a 7d de bd 85 18 ba 3d 35 91 33 bf 9d ab a5 bf
       -0.10863753 0.09086708 -0.70143443 -1.2942997
000280 2f a7 92 3f 56 76 54 3a 58 c6 a8 bd ee f7 25 bf
       1.145727 0.00081047916 -0.08240956 -0.64831436
000290 3d 8e 8d be 69 f4 8c be f1 24 cb be 6c c8 8d 3f
       -0.27647582 -0.2753022 -0.39676622 1.1076789
0002a0 16 02 fa bd f7 4b a1 be a0 bb 91 be 67 b9 c5 bd
       -0.12207429 -0.3150327 -0.2846346 -0.09654503
0002b0 08 3f 1c be 1a a2 e1 bc 7c 41 23 3f c9 82 83 bf
       -0.1525842 -0.027543116 0.63771796 -1.0274287
0002c0 15 92 f7 be 5d af ed bd 72 9c 30 3f ab 12 a9 bf
       -0.4835364 -0.116057135 0.68988717 -1.3208822
0002d0 68 31 2c bf 34 7d 9c 3f 95 e7 9a be cb af 49 3e
       -0.6726289 1.2225709 -0.30254808 0.19695966
0002e0 09 88 61 bd ad 97 86 3e f5 f7 0f bf 26 ae 26 bf
       -0.055061374 0.26287594 -0.5623773 -0.6510948
0002f0 95 71 c5 3e 1f 11 9d bd c2 12 ac 3d 87 ab 56 be
       0.3856322 -0.07669281 0.08402015 -0.2096387
000300 ad ee 12 3e 56 89 a9 bc 1e 7b 7c 3d 66 91 a4 3e
       0.1434886 -0.02069537 0.06164085 0.3214218
000310 57 2d 64 bf ef 0d b3 3e 8a 2c 4f be 53 b4 c3 be
       -0.89131683 0.34971568 -0.20231834 -0.38223514
000320 bc a9 41 bf 56 3f 7c bf 31 ad 16 3f 19 be 2c 3e
       -0.7564962 -0.9853414 0.5885802 0.16869392
000330 ad c1 0e be 54 8f 3b be ae ab 6c 3f 33 05 ef 3e
       -0.13941069 -0.18316394 0.9244946 0.46683654
000340 15 fb ae be 78 27 c7 3e 29 94 1a 3e 24 dc 25 3f
       -0.34175935 0.388973 0.15095581 0.6478903
000350 90 8b 1f 3e 0e 1e 88 3e 2c ae d3 be dd fa 15 3e
       0.15580583 0.2658543 -0.4134382 0.14646478
000360 6b f5 b2 3e 06 fb d0 bd 35 e4 ef bd cf 13 8a be
       0.34952864 -0.10204129 -0.11713449 -0.26968238
000370 60 14 59 3e 67 7f dd be bb 86 4c bd e7 bc 38 3e
       0.21199179 -0.43261263 -0.049933176 0.1804081
000380 67 36 77 3d 9d 31 47 be 2d 90 04 3f 00 b5 86 be
       0.060354616 -0.1945252 0.51782495 -0.26309967
000390 70 5d 1f bd 66 be f0 3e da 35 8b bd 5c 22 9a 3d
       -0.03890747 0.47020262 -0.06797381 0.07526085
0003a0 e1 57 bb 3e d5 72 46 bc b6 6d d7 be ee 9d a3 3e
       0.36590484 -0.012112339 -0.4207589 0.31956428
0003b0 7d fa fd 3e 18 d2 58 bf 93 1d 41 3e 6c 4e 4e 3f
       0.4960517 -0.8469558 0.18858938 0.8058841
0003c0 38 76 73 be e7 32 1c 3f f1 b1 9d 3d 6b aa 35 be
       -0.23775566 0.6101517 0.07699955 -0.1774079
0003d0 27 2e 0f 3b f8 46 a0 3e 48 12 38 3e 54 59 31 3f
       0.0021847577 0.31304145 0.17975724 0.6927693
0003e0 d1 30 3b 3f 4e 7d 5f 3e 86 6f 56 be 51 9b 8e 3e
       0.7312136 0.21825144 -0.2094098 0.27852872
0003f0 ed 07 14 be a8 d7 b7 be 62 de 52 3e a0 f9 49 3e
       -0.14456148 -0.3590672 0.20592645 0.1972413

encoder.rnn.weight_hh_l0_reverse f4 [64, 16]
000000 01 6f 21 be 03 79 0e bc 5c 8d 57 3e c1 d6 31 be
       -0.15765001 -0.008695844 0.21050018 -0.17367078
000010 14 3b 22 3d 0e 9e 12 be 6a b6 fe 3d 86 4c 2a 3d
       0.039607123 -0.14318106 0.124371365 0.041576885
000020 98 7d 56 3e 7a 4d bd 3c 9d 04 a9 3e 56 5c ea bd
       0.20946348 0.023108233 0.33011332 -0.11443393
000030 d3 3b f3 be 6d f6 80 be 92 91 72 bd e4 63 b1 be
       -0.4750658 -0.25188008 -0.059220858 -0.34646523
000040 66 ff 64 3e c6 26 5f bf 2f fb 5b 3e a5 6b 13 3e
       0.22363052 -0.8716854 0.21482538 0.14396532
000050 83 51 68 3e 01 7b 73 3e 88 52 b6 be f7 18 d9 bc
       0.22687344 0.23777391 -0.3560984 -0.026501162
000060 a4 77 cd 3d 4f fe 18 be 3a 6d 7d 3e d2 98 b0 3d
       0.10032585 -0.14940761 0.24748698 0.08622898
000070 2c dd f5 be 93 75 2e be 0d ce f5 bd ac 99 99 3e
       -0.48020303 -0.17037039 -0.12002192 0.30000055
000080 3e ae c6 3e 5c 6a 0c 3f 68 49 f3 3c 68 13 dc 3c
       0.3880481 0.5484979 0.029698089 0.026864722
000090 b9 87 b2 3e c1 66 c1 3e c7 0f 1b bd 6d 65 00 be
       0.34869173 0.37773708 -0.037856843 -0.12538691
0000a0 b6 cf 47 be a3 b0 c9 3d 10 47 d3 3e eb f5 56 be
       -0.19512829 0.09848144 0.41265154 -0.20992248
0000b0 79 44 3f be 50 29 93 be 75 d6 01 be 66 e1 04 bf
       -0.18678464 -0.28742456 -0.12679465 -0.5190643
0000c0 20 9b 66 3f 6b 5d 52 3f 5a 16 06 3e b1 5a 87 be
       0.9008045 0.82173795 0.13094464 -0.2643638
0000d0 f0 d9 57 3d b6 e2 4d 3e 46 21 02 3e 81 eb ec bd
       0.052698076 0.20106015 0.12708005 -0.11568356
0000e0 d2 4a d8 3e b0 a7 0f be 38 ea 4a 3e f0 59 da bd
       0.42244583 -0.14028811 0.1981591 -0.106616855
0000f0 aa bd 3f be ec a8 c8 be 16 93 3c be db 56 45 bf
       -0.18724695 -0.39191377 -0.18415484 -0.77085656
000100 7a a5 98 3e e5 e6 d3 bd 67 36 23 3e ac 3b f7 bd
       0.2981375 -0.10346774 0.15938722 -0.120719284
000110 b2 bd 57 be 98 bc 8d be 10 fc fc bd 77 6c 54 3e
       -0.21068457 -0.27682948 -0.123527646 0.20744501
000120 f9 a0 12 bd 0e 3c 98 3d 94 6e 0a bf d9 47 2d 3d
       -0.035798047 0.074333295 -0.5407498 0.042304847
000130 11 04 27 bd a0 37 eb 3e 3b 1b 5e 3c c4 9c 80 3e
       -0.040775362 0.45940876 0.013556297 0.25119603
000140 57 5b 84 3e 77 f1 3c 3e 38 d8 2a 3e 4b 11 83 bd
       0.25850937 0.18451487 0.16684043 -0.06399783
000150 15 70 d7 bd 39 b4 e2 be ef 2f 1f 3d 69 97 9d 3e
       -0.10519425 -0.44278124 0.038864072 0.3077958
000160 d1 ef 52 be bd 5e 40 3e 43 a7 33 be f5 6e 6c 3e
       -0.20599295 0.1878614 -0.17544274 0.23089202
000170 65 9b 92 3d 1c 49 1f 3e 0c ad 78 3d 43 50 31 3e
       0.071585454 0.15555233 0.060711905 0.17315774
000180 41 3e ad 3e 05 37 b8 3e c8 a7 38 be 0f b3 ab bd
       0.33836558 0.35979477 -0.18032753 -0.08383762
000190 ac 09 f4 3e e7 74 d4 3e ef 85 b5 3d 54 20 98 bc
       0.4766363 0.4149544 0.088634364 -0.018570103
0001a0 28 5c b3 3d 86 8d 6d be fc a8 1d 3f 89 cb be be
       0.08757812 -0.23198518 0.61585975 -0.3726466
0001b0 31 05 23 be df 26 10 bf d3 c0 9a be 20 d0 69 bf
       -0.15919949 -0.5630931 -0.30225238 -0.913332
0001c0 17 5b 56 3f 64 34 a7 3f f7 53 e9 3d fa ce a4 3d
       0.8373274 1.3062863 0.11392968 0.0804729
0001d0 67 04 61 3e 3c df 2c 3f 8c e5 ad be 36 e1 08 bf
       0.21974336 0.6752813 -0.33964193 -0.53468645
0001e0 15 07 de 3d 73 09 d0 3e 5a ba 0b 3f 06 8d f4 be
       0.108411945 0.4063221 0.54581225 -0.47763842
0001f0 3e 97 a3 be 28 59 77 bf 23 6e 0d bf f4 5e 55 bf
       -0.31951326 -0.96620417 -0.5524618 -0.8334801
000200 b5 2a 28 3f 93 0b 8a 3f c4 b3 fc 3d 75 66 aa be
       0.65690166 1.0784782 0.12338975 -0.33281294
000210 33 02 0a 3f 0d 98 da 3e 6b f1 29 bd 1e a5 d5 be
       0.53909606 0.4269413 -0.04149 -0.41727537
000220 63 4f b3 3e 0d 3b d6 3e fd 06 97 3f be 7d 84 be
       0.35021505 0.41841927 1.1799008 -0.25877184
000230 47 69 8f be 8c ce 75 bf 6c 79 c1 be 1a e2 cb bf
       -0.28010008 -0.9601829 -0.3778795 -1.5928376
000240 64 b3 fb 3e e5 d4 1c 3f c5 19 13 3d d6 aa a9 bd
       0.49160302 0.6126235 0.035913248 -0.082845375
000250 38 63 0b 3f ef 17 d9 3e 91 eb fa 3d ec b3 50 be
       0.5444827 0.42401072 0.12251962 -0.20381135
000260 98 99 e0 3d 11 f9 6d 3e 14 71 c1 3e 92 3e 96 be
       0.10966796 0.23239543 0.37781584 -0.29344612
000270 74 33 81 be 3a 01 c6 be 0d 37 54 be d1 f8 13 bf
       -0.25234568 -0.3867281 -0.20724125 -0.5780154
000280 8f 53 b9 3e f5 fc 35 3e 83 ae b8 3c c1 1b ce 3c
       0.36196563 0.17772277 0.022544151 0.025159718
000290 7d de b3 3e 55 e6 cb 3e cd a6 fa 3d 52 d2 14 be
       0.35130683 0.39824167 0.12238846 -0.14533356
0002a0 86 4e 07 3d 85 9d b6 3d b8 95 9b 3d 27 7c 02 3e
       0.03303387 0.08916763 0.07596916 0.12742673
0002b0 f0 04 c7 be 2b 67 47 bd bf 72 89 be f0 2b d1 be
       -0.38870955 -0.048682373 -0.26845357 -0.40853834
0002c0 3c 5e 99 3d 90 87 a2 bc bd d2 9d bc 9e 1b d8 3c
       0.07488677 -0.019840032 -0.019265527 0.026380356
0002d0 c6 76 95 3c 0a ea 88 3e a7 3c 8d 3b bb ed 49 be
       0.018245112 0.26741058 0.004310209 -0.19719593
0002e0 79 76 b6 3d bb 80 8f bd d0 7e 59 3e 85 c0 10 bf
       0.089093156 -0.07006975 0.21239781 -0.5654376
0002f0 b6 64 1f be 76 cb 42 be 24 b1 d8 be d7 fb d3 be
       -0.15565762 -0.19022927 -0.42322648 -0.41403076
000300 37 10 bb 3e 5c 3b 29 bc 85 1d 38 3e 32 37 4a 3d
       0.36535808 -0.010329094 0.17980011 0.049369045
000310 20 97 1d bd 09 ef 4b 3e 64 de d4 bd 2b 40 3a be
       -0.038474202 0.19915403 -0.1039398 -0.1818854
000320 20 cc be 3e ac 5e 9c 3d 15 6e 48 3f 16 88 25 bd
       0.3726511 0.07635245 0.7829297 -0.040412985
000330 73 1f 1c bf 7d 6c 6f be fb 9e b6 be 60 cd 05 bf
       -0.6098549 -0.23381229 -0.35668167 -0.522665
000340 3c 74 01 3e 5b 18 aa bd 29 bd 87 bd 2f 47 89 be
       0.12641996 -0.08305427 -0.06627876 -0.2681212
000350 3b 95 36 3e 2f 3f d2 be b7 e8 b6 3e a2 4e 3e 3e
       0.17830364 -0.4106383 0.35724422 0.18584684
000360 bb 20 7b bd 09 8c 9b bd 49 ee 0d 3e 8e 22 3a be
       -0.06131051 -0.07595069 0.1386043 -0.18177244
000370 11 bc 0e 3c 06 79 20 3e 1d 85 6f 3e 7c b8 96 3e
       0.008711831 0.15671167 0.23390622 0.29437625
000380 81 4d b1 3e 58 6f bf 3e fe 31 9c bd 48 b4 25 bf
       0.34629443 0.37389636 -0.07626723 -0.6472821
000390 42 b0 ed 3b 73 aa 16 bb 65 21 80 3e 83 9a 9b 3d
       0.0072536776 -0.002298978 0.25025478 0.0759783
0003a0 b8 7f 28 bd 89 5d d2 3c bc 57 fb bd 21 f9 95 bd
       -0.041137427 0.025679367 -0.122725934 -0.07322908
0003b0 fe dc 9b 3e 7b cc 33 be 26 18 74 bc 29 85 c2 3c
       0.3044204 -0.17558472 -0.014898336 0.023745136
0003c0 db 7d 46 3e a6 2f 82 be b1 13 bf 3e dd b7 b8 3d
       0.19383948 -0.25426978 0.3731971 0.09019444
0003d0 0f 2a 2a 3d 03 f4 1b be 47 a9 a2 be 38 68 98 be
       0.041544016 -0.15229802 -0.31769773 -0.29767013
0003e0 30 e7 2d be bf 6a 95 bc b5 1d de 3e 8a c9 08 3e
       -0.16982722 -0.018239377 0.4338204 0.13358131
0003f0 27 f2 4c be 34 54 15 be 3e 94 49 3e 2e 91 f6 bd
       -0.20014249 -0.14582902 0.19685456 -0.120394096

encoder.rnn.bias_ih_l0_reverse f4 [64]
000000 0d a0 ca bd 00 56 23 be ac 9f cb bd b7 d5 fa 3c
       -0.098938085 -0.15950775 -0.09942564 0.030619485
000010 e8 28 33 3e ec d0 d2 3d cb 67 55 be a9 0b 8d be
       0.17496073 0.10293755 -0.20840375 -0.27547958
000020 ed 61 1e be 0a 35 04 be 82 31 be bd e7 a8 f8 bd
       -0.15467043 -0.12910858 -0.092867866 -0.121415906
000030 b1 01 4c 3e 4e fe e3 3c 7c d5 f1 3c ac 9e 0a 3e
       0.1992252 0.027831223 0.029520743 0.13537091
000040 b2 7e b4 3e 87 f3 59 3e d3 31 13 3f 2f f0 33 3e
       0.3525291 0.21284305 0.574979 0.17572092
000050 bf 4a c2 3e ab 28 a0 3e 72 d8 f9 3e 09 19 18 3f
       0.37947652 0.31281027 0.48797947 0.594132
000060 ca 7c e4 3e 75 cf 95 3e f7 e8 e9 3e f2 53 0c 3f
       0.44626456 0.2925984 0.4568555 0.5481559
000070 74 10 79 3e e9 be b0 3d 19 ec ec 3d 5f 61 68 3e
       0.24322683 0.08630163 0.115684696 0.22693394
000080 8a 75 f0 3c bf 38 33 bd 21 d8 46 3d 31 ce 45 3c
       0.029352922 -0.04375529 0.04854596 0.012073086
000090 de 31 c2 bd ff 6a 22 be 48 71 9a bc 3b ff 0b 3e
       -0.09482168 -0.15861128 -0.018852845 0.13671581
0000a0 3b ec 5a bb d0 b1 e0 bc d0 5d 90 3c f4 e1 82 3c
       -0.0033404964 -0.027428538 0.017622858 0.015976883
0000b0 6f fd 27 bd ca a7 12 3e 90 b0 c2 3d 18 68 50 3d
       -0.041013177 0.14321819 0.09506333 0.05088052
0000c0 27 07 00 3f 7d 72 f1 3e 69 e3 d1 3e 4f 36 21 3f
       0.50010914 0.4715766 0.40993813 0.62973493
0000d0 47 fe 2f 3e 17 cf 34 3e 05 fc ee 3e 04 f3 2e 3f
       0.17186843 0.17657124 0.4667665 0.6833956
0000e0 9f c0 b7 3e dd f6 1f 3f ef 14 bf 3e 95 62 c9 3e
       0.35889146 0.6248606 0.3732066 0.39333025
0000f0 62 30 1f 3f 58 74 5e 3e 24 77 c0 3e 9c c1 91 3e
       0.621832 0.21724069 0.37590897 0.28468025

encoder.rnn.bias_hh_l0_reverse f4 [64]
000000 0d a0 ca bd 00 56 23 be ac 9f cb bd b7 d5 fa 3c
       -0.098938085 -0.15950775 -0.09942564 0.030619485
000010 e8 28 33 3e ec d0 d2 3d cb 67 55 be a9 0b 8d be
       0.17496073 0.10293755 -0.20840375 -0.27547958
000020 ed 61 1e be 0a 35 04 be 82 31 be bd e7 a8 f8 bd
       -0.15467043 -0.12910858 -0.092867866 -0.121415906
000030 b1 01 4c 3e 4e fe e3 3c 7c d5 f1 3c ac 9e 0a 3e
       0.1992252 0.027831223 0.029520743 0.13537091
000040 b2 7e b4 3e 87 f3 59 3e d3 31 13 3f 2f f0 33 3e
       0.3525291 0.21284305 0.574979 0.17572092
000050 bf 4a c2 3e ab 28 a0 3e 72 d8 f9 3e 09 19 18 3f
       0.37947652 0.31281027 0.48797947 0.594132
000060 ca 7c e4 3e 75 cf 95 3e f7 e8 e9 3e f2 53 0c 3f
       0.44626456 0.2925984 0.4568555 0.5481559
000070 74 10 79 3e e9 be b0 3d 19 ec ec 3d 5f 61 68 3e
       0.24322683 0.08630163 0.115684696 0.22693394
000080 8a 75 f0 3c bf 38 33 bd 21 d8 46 3d 31 ce 45 3c
       0.029352922 -0.04375529 0.04854596 0.012073086
000090 de 31 c2 bd ff 6a 22 be 48 71 9a bc 3b ff 0b 3e
       -0.09482168 -0.15861128 -0.018852845 0.13671581
0000a0 3b ec 5a bb d0 b1 e0 bc d0 5d 90 3c f4 e1 82 3c
       -0.0033404964 -0.027428538 0.017622858 0.015976883
0000b0 6f fd 27 bd ca a7 12 3e 90 b0 c2 3d 18 68 50 3d
       -0.041013177 0.14321819 0.09506333 0.05088052
0000c0 27 07 00 3f 7d 72 f1 3e 69 e3 d1 3e 4f 36 21 3f
       0.50010914 0.4715766 0.40993813 0.62973493
0000d0 47 fe 2f 3e 17 cf 34 3e 05 fc ee 3e 04 f3 2e 3f
       0.17186843 0.17657124 0.4667665 0.6833956
0000e0 9f c0 b7 3e dd f6 1f 3f ef 14 bf 3e 95 62 c9 3e
       0.35889146 0.6248606 0.3732066 0.39333025
0000f0 62 30 1f 3f 58 74 5e 3e 24 77 c0 3e 9c c1 91 3e
       0.621832 0.21724069 0.37590897 0.28468025

decoder.rnn.weight_ih_l0 f4 [128, 39]
000000 99 79 e3 be 48 26 90 bd 85 70 f8 be 14 22 ea bc
       -0.4442871 -0.070385516 -0.48523346 -0.028580703
000010 2e 88 70 3e e0 74 8b 3e 86 d8 68 3d e8 d2 4c 3e
       0.23489448 0.27237606 0.056847118 0.2000233
000020 3c ea 87 bf f6 26 e5 bd ec e1 b9 3e 2f 87 74 3e
       -1.0618358 -0.11189072 0.36305177 0.23879693
000030 4a 4e 87 be 31 92 e1 3d d4 93 6e 3e 83 ac 68 3d
       -0.26426917 0.11014212 0.2329858 0.056805145
000040 81 50 06 3f ad aa cb bd b9 b7 da 3e cd a7 c1 bf
       0.5246659 -0.09944663 0.42718294 -1.5129334
000050 1e 4b e6 be c6 28 c0 be 1c da 22 be 0b 04 4c 3d
       -0.44979185 -0.37531108 -0.15903515 0.049808543
000060 67 f0 96 3e d9 57 d0 3f a1 c9 be be 01 9d 8c 3e
       0.29480287 1.6276809 -0.37263206 0.27463534
000070 f2 dd 03 bf 69 92 08 3f 01 53 39 3f ab 66 55 be
       -0.51510537 0.53348404 0.7239228 -0.20839946
000080 ee f7 57 be 55 71 c6 bf 4f 61 af 3e f4 b0 a4 3e
       -0.21090671 -1.5503336 0.34253928 0.32166255
000090 a2 51 87 3d be e8 21 be 24 3c a0 3d d7 4b 9f 3d
       0.06607367 -0.1581144 0.07823971 0.07778137
0000a0 2f 5a 46 bb fd a3 5e 3e 61 ad 3f bd ce 28 3b 3d
       -0.0030266156 0.21742244 -0.046796206 0.04569321
0000b0 f0 da 4a 3d 29 b8 24 bd 53 4b fe bd f3 6d be 3d
       0.0495252 -0.04021469 -0.12416711 0.09298315
0000c0 f9 21 4d bc 73 ba 78 bd bd f8 34 be 30 c5 02 3e
       -0.012520307 -0.060724687 -0.17673011 0.12770534
0000d0 84 54 bf 3d c3 18 7f bc 30 f3 a5 3c 6d 87 af 3c
       0.09342292 -0.0155698685 0.020257562 0.02142688
0000e0 54 ad da 3d 0b 51 1b 3e 8b 9b 80 bd 18 25 ae bc
       0.10677591 0.15167634 -0.062796675 -0.021257922
0000f0 c1 82 a8 bd 38 1a 97 3d 45 5a a9 3d a3 fa 2b 3e
       -0.08228064 0.07378048 0.08269171 0.16794829
000100 59 69 8f b9 8e c6 b4 3c 48 49 eb 3d ef 70 97 3d
       -0.00027353576 0.022067335 0.11488587 0.07394587
000110 32 2b 26 be c0 09 ab bd 63 e8 ff bd 70 8a 8f 3d
       -0.16227415 -0.08351469 -0.12495496 0.07008827
000120 52 00 f9 3d c0 94 e5 3c 8a 34 ca be 57 95 c0 be
       0.12158264 0.028025031 -0.3949321 -0.37613937
000130 03 70 76 be 0e ee 94 3e 94 b8 5a be c6 db 14 3f
       -0.24066167 0.2908787 -0.21359473 0.5814785
000140 f3 78 20 bf 1b 4a bb 3c 9d 0f e2 3e f8 42 84 3e
       -0.62684554 0.022862485 0.44152537 0.25832343
000150 d3 2a d2 3e f7 13 01 3f 32 cd 82 be 18 e5 c0 3e
       0.41048297 0.5042109 -0.25547177 0.37674785
000160 2e 50 be be 1f 83 7e 3e 51 fc 78 be e8 64 f9 be
       -0.37170547 0.24854706 -0.24315001 -0.48709798
000170 17 a6 00 3b c6 31 04 bc 3f f2 14 3e d9 ea 0e bf
       0.0019630247 -0.008068508 0.14545535 -0.558271
000180 76 76 36 3e 19 99 98 3e 18 b9 51 bf 7d f9 1c bf
       0.17818627 0.29804304 -0.81923056 -0.6131819
000190 5e 07 07 be ff 03 10 3f 2c a5 0f bf cb e1 06 bf
       -0.13186404 0.562561 -0.5611141 -0.5268828
0001a0 b7 c7 51 bf 2a 2d 1a 3e e0 52 c0 3e 9d ee 68 3f
       -0.81945366 0.15056291 0.3756323 0.90989095
0001b0 38 bf 4d 3f 00 68 1d 3f 04 90 85 3e 79 8f 57 3e
       0.803699 0.61486816 0.26086438 0.21050824
0001c0 44 f6 d2 3e fc e1 48 bb d9 f8 72 be 4f 4c 1c be
       0.4120351 -0.0030652275 -0.2372774 -0.15263484
0001d0 f3 3d cb bd f5 fc 66 3e 7b fa 07 bf da b6 b0 3d
       -0.09923925 0.22557433 -0.5311658 0.08628626
0001e0 62 13 51 3d d1 f2 24 be c8 82 9b 3d 2b bd a0 be
       0.051043876 -0.16108252 0.07593304 -0.31394324
0001f0 96 32 58 bd a8 61 2e be 6b cf 61 be f7 1a 9c 3d
       -0.052782618 -0.1702944 -0.2205178 0.07622331
000200 78 a8 fd bd b0 cd 09 be 0a fc 88 3e e7 82 77 be
       -0.123856485 -0.1345737 0.2675479 -0.24171029
000210 7f fc a8 bd 10 77 b8 bd 57 69 8a 3e 48 22 f6 3c
       -0.08251285 -0.09007084 0.27033493 0.030045643
000220 0e 26 f4 bd 26 b3 80 bd a3 51 dc bd bd 3e 8e be
       -0.11921321 -0.0628417 -0.107577585 -0.2778224
000230 ec b4 55 3c 30 8c f5 3c 3c 46 db 3b 43 4c d0 bd
       0.013043623 0.029974073 0.006691722 -0.10170796
000240 82 e7 96 3d ea 21 c4 3c b8 58 6b 3e 69 5a ff bd
       0.07368375 0.023941953 0.22983062 -0.12468416
000250 11 99 0c be e2 5b 52 3d 74 28 44 be c4 65 fe 3e
       -0.13730265 0.051357158 -0.19156057 0.49687016
000260 10 80 c8 3d 42 37 c5 be 41 7d da bd 92 46 8d 3d
       0.09790051 -0.3851872 -0.106684215 0.06898226
000270 b4 6e 9b be 31 f7 43 be 86 64 8d be 42 81 7b bc
       -0.30357897 -0.19137265 -0.27615756 -0.015350642
000280 9a f4 c4 3e 86 7c 63 3d e9 7c 8d 3e 75 d4 24 3f
       0.38467866 0.055538677 0.2763436 0.64386684
000290 bd ab 10 be e0 91 c3 3e 6d 75 aa be 85 ce eb 3c
       -0.14128013 0.3819723 -0.33292714 0.028785
0002a0 ff ea be be a3 58 cb be 43 5d 52 bd 7e dd 6c 3e
       -0.37288663 -0.39716062 -0.051358473 0.23131368
0002b0 b3 d4 b2 bb 17 8f 6d be e2 9d b3 3e a7 24 40 3e
       -0.0054574846 -0.23199116 0.35081393 0.18763982
0002c0 71 73 09 bf 98 b7 03 bf 44 c7 3d 3e 93 be 1b 3e
       -0.53691775 -0.51452017 0.18533045 0.15209417
0002d0 66 7b 15 be 50 a6 04 be a4 a2 34 bf f1 8e d0 3d
       -0.14597854 -0.12954068 -0.7056067 0.10183514
0002e0 24 ae 09 3f 05 31 01 3f c8 70 20 3f 43 97 39 3f
       0.5378134 0.5046542 0.6267209 0.7249643
0002f0 d8 54 af 3e be a0 82 3d 63 ce bc 3e ee b0 43 3d
       0.34244418 0.063783154 0.3687621 0.047776155
000300 12 5a 71 be 7d f6 c5 be 6f 82 1d be 9e a0 b7 be
       -0.23569515 -0.38664618 -0.15381788 -0.3586473
000310 56 a9 cf bf 13 9c aa be e0 94 bc 3e 18 a2 02 3e
       -1.6223552 -0.333222 0.36832333 0.12757146
000320 f8 fd c5 bd 68 82 45 be af 4f 8d 3d d3 d2 ce 3e
       -0.09667581 -0.19288027 0.06899964 0.4039522
000330 56 09 e7 3e 34 c3 8d 3f b7 05 cc bd 58 ba 1f 3e
       0.4512431 1.1075196 -0.099620275 0.15598428
000340 6d cb a7 be f8 8e 19 be f3 8c 90 3f f8 4d 29 bf
       -0.3277239 -0.14995944 1.1293014 -0.66134596
000350 6f 01 fd be 93 fb 70 3d b6 61 c2 3e 42 ef 68 be
       -0.49415156 0.05883367 0.37965173 -0.2274752
000360 bc 76 87 be 66 f6 8d 3e fd c8 fb 3d 64 03 73 be
       -0.26457775 0.2772705 0.12294195 -0.23731762
000370 bf 07 18 be 80 bd 74 be 8e 22 8e be 5a af ac 3e
       -0.14846705 -0.23900414 -0.27760738 0.33727533
000380 9f 0b 8f 3d 84 9a 9a 3f 0a db 61 3f e7 53 30 3f
       0.069846384 1.2078404 0.8822485 0.68878025
000390 f5 bd ae 3e 7f 29 42 3f 5b c3 bf be f8 df 54 bf
       0.341293 0.7584457 -0.37453732 -0.8315425
0003a0 02 de 44 bf 1d eb 40 3b b7 3b 35 3d 68 53 47 bf
       -0.7690126 0.0029437013 0.0442464 -0.7786164
0003b0 85 22 03 be 69 b4 d8 bd f8 27 da bd 51 80 5d bc
       -0.12806137 -0.105812855 -0.10652155 -0.013519363
0003c0 90 7f 45 be 85 61 17 3c 2d 3d 45 3f 09 5e 0d be
       -0.19286942 0.009239559 0.7704647 -0.13805403
0003d0 95 d7 b7 be 1d cb 08 be 7f bf 14 bf a7 e4 8b 3e
       -0.35906664 -0.13358732 -0.581047 0.27322885
0003e0 44 dc bc 3e 8f 93 4a be eb 75 be 3f 5a e6 c1 3e
       0.368868 -0.19782852 1.4879736 0.37871057
0003f0 68 46 75 bf fa 68 93 3e be 9d c8 be 06 8c 08 be
       -0.95810556 0.28791028 -0.39182848 -0.13334665
